…
ar, regular, regular, regular, regular, regular, regular, regular, regular, regular, regular, regular, regular, regular, regular, regular, regular, regular, regular, regular, regular, regular, regular, regular, regular, regular, regular, regular, regular, regular, regular, regular, regular, regular, regular, regular, regular, regular, regular, regular, regular, regular, regular, regular, regular, regular, regular, regular, regular, regular, regular, regular, regular, regular, regular, regular, regular, regular, regular}])\n  (filter): DynamicFilterFC2(\n    (enc): Sequential(\n      (enc-conv0): Conv2d(1, 32, kernel_size=(3, 3), stride=(1, 1), padding=(1, 1))\n      (enc-relu0): ReLU(inplace=True)\n      (enc-conv1): Conv2d(32, 64, kernel_size=(3, 3), stride=(1, 1), padding=(1, 1))\n      (enc-relu1): ReLU(inplace=True)\n      (enc-pool2): MaxPool2d(kernel_size=2, stride=2, padding=0, dilation=1, ceil_mode=False)\n      (enc-conv2): Conv2d(64, 128, kernel_size=(3, 3), stride=(1, 1), padding=(1, 1))\n      (enc-relu2): ReLU(inplace=True)\n      (enc-pool3): MaxPool2d(kernel_size=2, stride=2, padding=0, dilation=1, ceil_mode=False)\n      (enc-conv3): Conv2d(128, 256, kernel_size=(3, 3), stride=(1, 1), padding=(1, 1))\n      (enc-relu3): ReLU(inplace=True)\n    )\n    (fc1): Linear(in_features=9216, out_features=1024, bias=True)\n    (fc2): Linear(in_features=1024, out_features=12304, bias=True)\n  )\n  (dynamic_filter): R2ConvDF(\n    (_basisexpansion): BlocksBasisExpansion(\n      (block_expansion_('regular', 'regular')): SingleBlockBasisExpansion()\n    )\n  )\n  (pick_q_values): Sequential(\n    (0): conv2d(\n      (layer): SequentialModule(\n        (0): R2Conv([Flip_4-Rotations(f=1.57080): {regular, regular, regular, regular, regular,
…
egular, regular, regular, regular, regular, regular, regular, regular, regular, regular, regular, regular, regular, regular, regular, regular, regular, regular, regular, regular}], [32-Rotations: {regular, regular, regular, regular, regular, regular, regular, regular, regular, regular, regular, regular, regular, regular, regular, regular}], kernel_size=3, stride=1)\n    (5): ReLU(inplace=True, type=[32-Rotations: {regular, regular, regular, regular, regular, regular, regular, regular, regular, regular, regular, regular, regular, regular, regular, regular}])\n  )\n  (es_fc): Sequential(\n    (0): Linear(in_features=16384, out_features=1024, bias=True)\n    (1): ReLU(inplace=True)\n    (2): Linear(in_features=1024, out_features=512, bias=True)\n    (3): ReLU(inplace=True)\n  )\n  (in_hand_conv): Sequential(\n    (0): DynamicFilterFC2(\n      (enc): Sequential(\n        (enc-conv0): Conv2d(1, 32, kernel_size=(3, 3), stride=(1, 1), padding=(1, 1))\n        (enc-relu0): ReLU(inplace=True)\n        (enc-conv1): Conv2d(32, 64, kernel_size=(3, 3), stride=(1, 1), padding=(1, 1))\n        (enc-relu1): ReLU(inplace=True)\n        (enc-pool2): MaxPool2d(kernel_size=2, stride=2, padding=0, dilation=1, ceil_mode=False)\n        (enc-conv2): Conv2d(64, 128, kernel_size=(3, 3), stride=(1, 1), padding=(1, 1))\n        (enc-relu2): ReLU(inplace=True)\n        (enc-pool3): MaxPool2d(kernel_size=2, stride=2, padding=0, dilation=1, ceil_mode=False)\n        (enc-conv3): Conv2d(128, 256, kernel_size=(3, 3), stride=(1, 1), padding=(1, 1))\n        (enc-relu3): ReLU(inplace=True)\n      )\n      (fc1): Linear(in_features=9216, out_features=1024, bias=True)\n      (fc2): Linear(in_features=1024, out_features=512, bias=True)\n    )\n    (1): ReLU(inplace=True)\n  )\n  (df_fc): Sequential(\n    (0): Linear(in_features=1024, out_features=8208, bias=True)\n  )\n  (dynamic_filter): R2ConvDF(\n    (_basisexpansion): BlocksBasisExpansion(\n      (block_expansion_('regular', 'regular')): SingleBlockBasisExpansion()\n    )\n  )\n  (conv_2): Sequential(\n    (0): R2Conv([32-Rotations: {regular, regular, regular, regular, regular, regular, regular, regular, regular, regular, regular, regular, regular, regula
…
